tutorials/cifar_net.pth (torch, 354917 bytes, 10 tensors)

conv1.weight f4 [60, 3, 5, 5]
0	0x3c226ee4	0.009914134
1	0xbcb3fa43	-0.02196992
2	0x3cd6d8c1	0.026226403
3	0xbdb3e099	-0.08783073
4	0x3d4fcb92	0.05073125
5	0xbdb90560	-0.09034228
6	0xbe298e77	-0.16558252
7	0xbde73870	-0.112900615
8	0x3dca653d	0.09882591
9	0x3c5cb67c	0.013471242
10	0xbe04f318	-0.12983358
11	0xbd6d8855	-0.057991344
12	0xbe0fb34a	-0.14033237
13	0x3de87f2a	0.113523796
14	0x3da7baa8	0.08189899
15	0x3d43a24b	0.047762197
16	0x3cf60ad8	0.030034468
17	0x3dbd50f1	0.09243954
18	0xbd05f489	-0.03270391
19	0x3c87a28c	0.016557
20	0x3c784c71	0.015154944
21	0x3dc18740	0.09449625
22	0x3dea7ac8	0.114492
23	0x3d2ed647	0.04268482
24	0x3d48ad35	0.048993308
25	0xbd6d7b68	-0.057979017
26	0xbd31ec75	-0.043438394
27	0xbdcd92c2	-0.100377575
28	0xbd14caa3	-0.036326062
29	0x3dc99726	0.098432824
30	0xbc719948	-0.014746018
31	0xbdd1aae8	-0.10237676
32	0xbd579338	-0.052630633
33	0xbe0a3132	-0.13495329
34	0x3d8bc440	0.06824541
35	0xbc12b40b	-0.008954058
36	0xbd161a30	-0.036646068
37	0x3d7364cc	0.0594223
38	0x3da39054	0.07986513
39	0xbd39543c	-0.045246348
40	0xbdd1464e	-0.10218488
41	0xbde29e2b	-0.110653244
42	0xbe0527a9	-0.1300341
43	0xbd94fe84	-0.072751075
44	0x3d9b4ad6	0.07582633
45	0xbde8c11c	-0.11364958
46	0xbd72a6fe	-0.059241287
47	0xbdebf252	-0.11520828
48	0x3d33d93f	0.043908354
49	0xbcad2f9e	-0.02114087
50	0x3d4fd5d5	0.050741035
51	0x3dc10233	0.094242476
52	0xbd19dc5b	-0.037563663
53	0x3baf8870	0.005356841
54	0xbd0d7cc5	-0.034542818
55	0x3d03c841	0.0321734
56	0x3d8c57b4	0.068526655
57	0x3dc79cc5	0.09746698
58	0x3dde08b2	0.10841502
59	0x3df7af78	0.12094015
60	0xbcb9ce4b	-0.022681376
61	0x3d81dcfc	0.063409775
62	0x3e1262f0	0.14295554
63	0x3a8a8eb4	0.0010571093
64	0x3e2232c9	0.15839685
65	0x3d2c3b7e	0.042048924
66	0xbd3e088d	-0.046394873
67	0x3c42387f	0.01185429
68	0x3e3f4e4b	0.1868221
69	0x3d8bc884	0.06825355
70	0x3d667626	0.05626502
71	0x3d683c6b	0.056698244
72	0x3e287ec5	0.16454609
73	0x3e129ef4	0.14318448
74	0x3dfcb5cc	0.123393625
75	0x3dfba3bd	0.1228709
76	0xbd0d4ff8	-0.034500092
77	0x3d859785	0.06523041
78	0xbdb9685d	-0.09053109
79	0xbc859840	-0.01630795
80	0x3db9783d	0.09056137
81	0x3d2248e8	0.03962031
82	0xbd838f7f	-0.06423854
83	0xbd5ae376	-0.05343958
84	0x3c8221d7	0.015885277
85	0x3e7e34b5	0.24824794
86	0x3e159247	0.14606582
87	0xbdb4a0b1	-0.08819712
88	0xbe19b305	-0.15009697
89	0xbdec7f6e	-0.11547743
90	0x3da0c9f1	0.07851017
91	0xbda43fe2	-0.08019997
92	0xbe53f871	-0.20700242
93	0xbe330bcd	-0.1748497
94	0xbd0654b5	-0.032795627
95	0xbcddf10f	-0.027092485
96	0xbe4e0400	-0.20118713
97	0xbe12e316	-0.14344439
98	0x3c9b6ac5	0.01897181
99	0x3dd6e5d2	0.104930535
100	0xb8661bf4	-5.4862307e-05
101	0xbc132c42	-0.00898272
102	0x3e0f562b	0.13997714
103	0xbda47915	-0.08030907
104	0xbdd72c0d	-0.10506449
105	0x3d3f3e91	0.046690527
106	0x3b268ed4	0.0025414722
107	0x3d545035	0.051834304
108	0xbdcceb46	-0.10005812
109	0xbdba88da	-0.091081336
110	0xbc526e09	-0.012843617
111	0x3dfdb419	0.123878665
112	0xbe1bbaa6	-0.1520792
113	0xbe474a3b	-0.1946191
114	0xbd97698c	-0.07393178
115	0xbaeaf9e9	-0.0017927262
116	0xbd8f3628	-0.06992751
117	0xbe540bdc	-0.20707649
118	0xbcfd7f0b	-0.030944368
119	0x3d9d37d6	0.076766655
120	0x3b04e827	0.0020279975
121	0xbe3f438d	-0.18678112
122	0xbe423dd8	-0.18968904
123	0x3bc1095d	0.005891009
124	0x3e3396ff	0.17538069
125	0xbdb42510	-0.087961316
126	0x3e4e9046	0.20172223
127	0xbbf58471	-0.007492595
128	0xba1ec4d3	-0.0006056551
129	0xbc98dd4d	-0.018660212
130	0x3e4f4495	0.20241006
131	0x3d37e6ab	0.044897716
132	0x3d585ed7	0.05282482
133	0x3bb3af45	0.0054835402
134	0xbddac1d5	-0.10681502
135	0x3e075647	0.13216506
136	0x3e1bc0a5	0.15210207
137	0xbde30b41	-0.11086131
138	0xbd3f14bc	-0.046650633
139	0x3d1eb2c7	0.038744714
140	0x3e43a616	0.19106326
141	0xbd0e7e54	-0.034788445
142	0xbe27a61c	-0.1637196
143	0x3d3df983	0.04638053
144	0x3ce5930c	0.028024219
145	0xbd9a10ae	-0.07522713
146	0xbe3396b0	-0.17537951
147	0x3cf45daf	0.029829828
148	0x3d4f8761	0.050666217
149	0x3de5480b	0.11195382
150	0x3e097de7	0.13426934
151	0x3d3deac5	0.04636647
152	0x3d98208b	0.07428082
153	0x3e138678	0.14406765
154	0xbc8cb652	-0.01717678
155	0x3e1b7783	0.15182309
156	0x3e166e2a	0.14690462
157	0x3dd5a58e	0.10431968
158	0x3dfa56e6	0.12223606
159	0xbd5274e2	-0.051381
160	0x3daaf8fb	0.083482705
161	0x3db0da7a	0.08635421
162	0x3d9fae7e	0.077969536
163	0xbc69916b	-0.014255862
164	0x3dd32bc8	0.10311085
165	0x3d19a8ab	0.03751437
166	0x3da0434f	0.07825338
167	0x3e267eba	0.1625928
168	0x3dd4949a	0.10379906
169	0xbdaa00c2	-0.08300926
170	0xbd99c7a6	-0.07508783
171	0x3bdd8033	0.0067596673
172	0x3e3d8ee0	0.18511534
173	0xbc4895c4	-0.012242738
174	0xbc3add18	-0.011405252
175	0xbd20fa5a	-0.039301254
176	0xbe10fdc9	-0.14159311
177	0xbda3101e	-0.079620585
178	0xbe2ee636	-0.17080006
179	0xbd8a9232	-0.06766166
180	0xbd53f25c	-0.051744804
181	0xbe16c650	-0.14724088
182	0xbdd246a2	-0.102673784
183	0xbe00538d	-0.12531872
184	0xbe2a65d1	-0.16640402
185	0xbe1d206c	-0.15344399
186	0x3c1e7928	0.009672441
187	0xbcd17f0b	-0.025573274
188	0xbdd737ef	-0.10508715
189	0xbd0c9080	-0.034317493
190	0xbbd35acd	-0.0064500333
191	0xbe3bad72	-0.18327883
192	0x3d29813c	0.041383013
193	0xbe0a64c6	-0.13515005
194	0xbcecb7a5	-0.028896162
195	0xbd510943	-0.051034223
196	0xbd1830f0	-0.037156045
197	0x3d49cc75	0.04926725
198	0x3c869db8	0.016432628
199	0xbce8ebfb	-0.028432837
200	0x3cc61d03	0.024183756
201	0xbce70e4f	-0.028205065
202	0xbc369238	-0.01114326
203	0x3c929c2c	0.017896734
204	0x3c723e99	0.014785432
205	0xbdc26eb1	-0.09493769
206	0x3ddac109	0.1068135
207	0xbd86d680	-0.065838814
208	0x3d9aec4a	0.075646
209	0x3dca4a13	0.0987741
210	0xbd242a38	-0.040079325
211	0x3d2835b7	0.04106685
212	0x3cd42590	0.025896817
213	0xbd3b6032	-0.045746036
214	0x3d706a70	0.058695257
215	0xbc750106	-0.014953857
216	0xbdf24e53	-0.118313454
217	0x3cfd1d6a	0.030897815
218	0x3bdaf9b0	0.006682597
219	0x391e1f9c	0.0001507983
220	0x3da84ee0	0.08218169
221	0xbe0c0b20	-0.13676119
222	0xb9a5ae93	-0.0003160132
223	0x3dba4796	0.09095685
224	0xbc032344	-0.008004013
225	0xbd47f912	-0.048821516
226	0xbdcd98e8	-0.1003893
227	0x3cf15415	0.029459039
228	0xbe16ccc3	-0.14726548
229	0xbd0044e8	-0.031315714
230	0xbd475a63	-0.048670184
231	0xbd92bf2d	-0.0716537
232	0xbdf16f4e	-0.11788808
233	0xbdd61aa5	-0.10454301
234	0x3c248bef	0.010043128
235	0xbdc6e877	-0.09712308
236	0xbe15138f	-0.14558242
237	0x3b5cd22d	0.003369461
238	0xbdde6368	-0.10858804
239	0x3d4d8e7b	0.050184708
240	0xbd19e39c	-0.03757058
241	0x3c44f704	0.012021784
242	0xbd973dbc	-0.07384822
243	0xbbb5d5c5	-0.005549165
244	0xbd55a6a4	-0.052160874
245	0x3cd86380	0.026414633
246	0xbe0263eb	-0.12733428
247	0x3bf94da9	0.0076081348
248	0xbdd77dbc	-0.10522029
249	0xbe1e5f21	-0.15465976
250	0x3db1caf0	0.086812854
251	0xbdd92e9d	-0.10604594
252	0x3d18bc1f	0.03728878
253	0xbdbc27ea	-0.091873005
254	0xbdc839de	-0.09776662
255	0x3c8727d6	0.016498487

conv1.bias f4 [60]
0	0xbdb261fb	-0.087100945
1	0xbec9f05c	-0.39441192
2	0xbe4ec675	-0.20192893
3	0xbe533ca4	-0.20628601
4	0xbe28fe72	-0.16503313
5	0xbf320211	-0.69534403
6	0xbd477797	-0.048698034
7	0xbe41879c	-0.18899387
8	0x3d354a03	0.044260036
9	0xbe96dd8a	-0.29465896
10	0xbe3f9074	-0.18707448
11	0xbe8ff5f0	-0.28117323
12	0xbebf95e7	-0.37419054
13	0xbea82209	-0.32838467
14	0xbe015aa0	-0.12632227
15	0xbe5db77c	-0.21652025
16	0xbe2fc31b	-0.1716427
17	0xbda82800	-0.082107544
18	0xbe286235	-0.16443713
19	0xbe256e2f	-0.16155313
20	0xbd86f1dd	-0.065891005
21	0xbe8ea021	-0.27856544
22	0xbe6d23ae	-0.23158142
23	0xbea2d442	-0.31802565
24	0xbe03f794	-0.12887412
25	0xbe2f1211	-0.17096736
26	0xbe83b52e	-0.25724167
27	0xbe58ac35	-0.21159442
28	0xbe9359f2	-0.2877956
29	0xbe367447	-0.17817794
30	0xbdf0d79e	-0.11759876
31	0xbeb8203f	-0.35962102
32	0xbd58447a	-0.05279968
33	0xbe89a669	-0.26884773
34	0x3ea5c446	0.32376307
35	0xbe004609	-0.12526716
36	0xbdb847c7	-0.089980654
37	0xbe18a38b	-0.14906137
38	0xbe3e559e	-0.18587348
39	0xbdc69063	-0.09695508
40	0xbe10fb7a	-0.1415843
41	0xbdd92379	-0.10602469
42	0xbe486721	-0.1957059
43	0xbec0fbe3	-0.37692174
44	0x3e66b767	0.225309
45	0xbe95cc6d	-0.29257527
46	0xbe47c262	-0.19507745
47	0xbe51670f	-0.2044947
48	0xbd29da6e	-0.041468076
49	0xbdc71e8c	-0.09722623
50	0xbe82284c	-0.2542137
51	0xbd0c37a3	-0.034232747
52	0xbe145521	-0.14485599
53	0xbd64a80c	-0.055824324
54	0xbd989786	-0.07450776
55	0xbe8a8e5c	-0.27061737
56	0xbc4095c4	-0.011754457
57	0xbdfb2929	-0.1226371
58	0xbe203eaf	-0.15648912
59	0xbe11336b	-0.1417977

conv2.weight f4 [16, 60, 5, 5]
0	0xbcaf1039	-0.02137004
1	0xbcdbd1dc	-0.026833467
2	0xbc0a325b	-0.008434857
3	0x3c813d4a	0.015776295
4	0xbb8ef8bb	-0.004363147
5	0xbb11051c	-0.002212829
6	0xbd38e761	-0.045142535
7	0xbc3a7513	-0.011380452
8	0xbd181765	-0.037131686
9	0x3c174998	0.009233855
10	0xbd01a55f	-0.03165185
11	0x3c786bcc	0.0151624195
12	0xbc89af48	-0.016807213
13	0xbb26ce72	-0.002545264
14	0x3c420cc5	0.011843865
15	0x3c5332ea	0.012890557
16	0x3d1422af	0.03616589
17	0xbc37be50	-0.011214808
18	0x3b422d26	0.0029628961
19	0xbcab53be	-0.020913955
20	0x3c6d3981	0.014479042
21	0xb92a0931	-0.00016215887
22	0x3c57c37b	0.013169165
23	0x3b60c0a4	0.003429451
24	0x3cb56e6a	0.022147376
25	0x3ca444d0	0.020052344
26	0xbd87a7a8	-0.06623775
27	0xbdaa8ff8	-0.08328241
28	0xbd6ca112	-0.057770796
29	0xbd3fe21f	-0.046846505
30	0x3d246d89	0.040143523
31	0xbad586b6	-0.0016290757
32	0xbd6fa131	-0.058503333
33	0xbd79d561	-0.06099451
34	0xbd781d0a	-0.06057457
35	0x3d3657f6	0.04451748
36	0xbcd92560	-0.02650708
37	0xbd22d8be	-0.039757483
38	0xbdd66803	-0.104690574
39	0xbdf3b719	-0.119001575
40	0x3d3f63a9	0.046725903
41	0xbb7e1261	-0.003876828
42	0xbc9a02e2	-0.018800203
43	0xbd9df013	-0.07711806
44	0xbd8cf8f8	-0.068834245
45	0x3cb6a639	0.022296058
46	0xbb94cc7f	-0.0045409794
47	0xbc6a67ab	-0.014306943
48	0xbd8b63c6	-0.0680614
49	0xbdddc4be	-0.10828541
50	0xbc965882	-0.01835275
51	0x3ba8b1d8	0.0051481538
52	0x3b955897	0.00455768
53	0x3c003494	0.007825036
54	0x3cb28c49	0.021795409
55	0xbbf5b689	-0.0074985665
56	0xbc5d80d4	-0.013519485
57	0xbcddb3db	-0.0270633
58	0x3c6b9afb	0.014380212
59	0x3d4eeef0	0.050520837
60	0xbd3391e7	-0.043840315
61	0xb9a42b75	-0.00031312896
62	0x3c5ee776	0.013604989
63	0xbc2597e3	-0.010107013
64	0x3d27a917	0.04093274
65	0xbd29b723	-0.04143442
66	0xbd3034e0	-0.043019176
67	0xbd51f2d6	-0.051256977
68	0xbc6f89a7	-0.014620221
69	0x3cca9d4b	0.024733206
70	0xbd6ae172	-0.057343908
71	0xbc69cad3	-0.0142695485
72	0xbc8020fc	-0.015640728
73	0xbcbc6d96	-0.023001473
74	0x3c169053	0.009189683
75	0x3ce07ddd	0.027403766
76	0x3cb62283	0.022233253
77	0xbcf7c8b5	-0.030247072
78	0xbc54e04e	-0.0129929315
79	0xbbb7ce2b	-0.005609294
80	0x3d436bb2	0.047710128
81	0x3cc09627	0.023509098
82	0xbca82028	-0.020523146
83	0xbc96dda3	-0.018416231
84	0xbd3399c1	-0.043847803
85	0x3d4432ba	0.04789994
86	0x3c660682	0.0140396375
87	0xb964a655	-0.00021805738
88	0xbd249d45	-0.040189046
89	0xbce6bde7	-0.028166724
90	0x3d129373	0.03578515
91	0x3d741e2f	0.059599098
92	0x3c085c0c	0.008322727
93	0xbcc4e8ce	-0.024036791
94	0xbd46d151	-0.048539463
95	0x3d4f5c6c	0.05062525
96	0x3ce99ce3	0.028517192
97	0x3b05745f	0.0020363552
98	0xbc2af42b	-0.010434191
99	0xbd2f8d2b	-0.042859238
100	0x3da0f6fb	0.07859608
101	0x3d4da90e	0.05021005
102	0xbc9a9467	-0.018869592
103	0x3c9b68dd	0.018970901
104	0x3ba93c60	0.005164668
105	0x3d91be2e	0.07116352
106	0x3d105431	0.03523654
107	0x3d5b9abb	0.05361436
108	0xbb4eeea2	-0.0031575342
109	0x3a3dee59	0.00072452944
110	0x3d37ec9f	0.044903394
111	0xbc14046c	-0.009034257
112	0xbcab12d4	-0.020883001
113	0x3b8fc77c	0.004387794
114	0x3ca179a1	0.019711317
115	0x3cb84b73	0.022496914
116	0x3d0d2755	0.034461338
117	0xbc6d3986	-0.014479047
118	0x3c9d79d8	0.019223139
119	0xbbf10e94	-0.007356474
120	0xbd6de3f1	-0.05807871
121	0xbc0a568f	-0.008443489
122	0x3c722556	0.014779409
123	0x3d637d50	0.05553943
124	0xbc4be1bd	-0.012443957
125	0x3d667531	0.056264106
126	0x3cee720b	0.029107114
127	0x3ccafeed	0.024779761
128	0x3d0b845c	0.034061775
129	0x3d18815c	0.03723274
130	0xbccc0566	-0.024904918
131	0xbd0ba902	-0.034096725
132	0xbd2cbde6	-0.04217329
133	0xbc6f14a2	-0.014592322
134	0xba6a7902	-0.0008944423
135	0xbd8877d9	-0.06663484
136	0xbd95fffc	-0.07324216
137	0xbced8209	-0.02899267
138	0xbd11b03e	-0.03556847
139	0xbc945b99	-0.018110083
140	0xbd47d12b	-0.048783462
141	0xbcc26ff8	-0.023735031
142	0xbd83ca44	-0.064350635
143	0xbd3995d9	-0.04530892
144	0xbcb728ae	-0.022358265
145	0xbd5c9026	-0.05384841
146	0xbda01ea1	-0.07818342
147	0xbd83581d	-0.06413291
148	0xbd2e5157	-0.04255804
149	0xbca48d13	-0.0200868
150	0x3d2f6f18	0.042830557
151	0x3d3ce76c	0.04611914
152	0xbbf89d05	-0.0075870776
153	0xbc777981	-0.015104652
154	0x3c54ab20	0.0129802525
155	0x3d76401d	0.060119737
156	0x3d466349	0.04843453
157	0x3ad95370	0.0016580652
158	0xbd0004d0	-0.03125459
159	0xbd62518c	-0.05525355
160	0x3bbf267b	0.0058334447
161	0x3c3b80c2	0.0114442725
162	0x3d3b99f0	0.045801103
163	0xbcc87cbd	-0.024473542
164	0xbd122031	-0.03567523
165	0x3ca0b0b9	0.019615518
166	0x3d477dea	0.048704065
167	0x3d2f0adf	0.042734977
168	0x3a227199	0.0006196737
169	0x3d02a215	0.031892855
170	0x3c44e06f	0.0120164
171	0xbc4a7381	-0.01235664
172	0xbc509fba	-0.012733394
173	0x3d4a0593	0.049321722
174	0x3c5f1cad	0.013617677
175	0x3d31d50e	0.043416075
176	0x3d63d229	0.055620346
177	0x3ce9799f	0.028500376
178	0x3c0aba4d	0.008467269
179	0x3c9c2d1d	0.01906448
180	0x3c1ae201	0.009453298
181	0x3d374692	0.044745035
182	0x3c11454e	0.008866621
183	0xbcb0cc26	-0.02158172
184	0xbd02d2dc	-0.031939372
185	0xbd190d36	-0.037366115
186	0xbb25fcb7	-0.0025327632
187	0xbc9ce209	-0.01915075
188	0x3d2e93db	0.042621475
189	0x3c996e27	0.018729283
190	0x3bb76cf1	0.0055977036
191	0xbbcfe602	-0.0063445577
192	0x3cd85a37	0.026410205
193	0xbca507a6	-0.020145249
194	0xbd30dd24	-0.043179646
195	0xbd18ad5c	-0.037274703
196	0xbcf90e42	-0.030402306
197	0x3d616aa8	0.055033356
198	0x3dd60b95	0.10451428
199	0x3da4e410	0.08051312
200	0x3ca725c9	0.02040376
201	0x3aac771d	0.0013158057
202	0xbd26bfcf	-0.040710267
203	0xbd16f7e6	-0.036857508
204	0xbd1de241	-0.03854585
205	0xbc7190df	-0.014744013
206	0xbc66387c	-0.014051553
207	0xbcb09cd9	-0.021559166
208	0xbd3d14ca	-0.046162404
209	0xbd668106	-0.05627539
210	0x3d46f0d5	0.04856952
211	0xbd2e08eb	-0.042488974
212	0xbd163587	-0.03667214
213	0xbd108d9b	-0.035291295
214	0xbd972820	-0.073807
215	0x3d764fbc	0.060134634
216	0x3c3dfd70	0.011596069
217	0xbd29d60c	-0.041463897
218	0xbd77a595	-0.060460646
219	0xbd8feeab	-0.07027944
220	0x3d8362a4	0.064152986
221	0x3c90f71c	0.017695956
222	0x3c44d1e3	0.0120129315
223	0xbd2e2f05	-0.04252531
224	0xbd8073e7	-0.062721066
225	0xbcfa04c9	-0.03051986
226	0xbb7666bb	-0.0037597853
227	0x3c883dcc	0.01663103
228	0x3c2e3436	0.010632565
229	0xbd325b3a	-0.04354403
230	0x3c750e7d	0.014957068
231	0x3b38be8c	0.0028189747
232	0x3c40cfc1	0.011768282
233	0xbc109497	-0.008824489
234	0xbb8a46ef	-0.0042198817
235	0xbd31c38a	-0.04339937
236	0xbd3e4065	-0.04644813
237	0xbcbe7a94	-0.02325181
238	0xbcdbc0df	-0.026825367
239	0xbd2f4ad0	-0.042795956
240	0xbcb47c64	-0.02203197
241	0xbce1aa21	-0.027546944
242	0xbc8a7c45	-0.01690496
243	0x3d422136	0.047394954
244	0x3d0f502f	0.03498858
245	0xbd69c7a0	-0.057075143
246	0xbcf28522	-0.029604498
247	0xbd72fb51	-0.059321705
248	0xbd8d2a50	-0.06892836
249	0xbcd52151	-0.026016863
250	0xbd78b57e	-0.06071996
251	0xbd3a7bdc	-0.045528278
252	0xbd1872d8	-0.0372189
253	0xbc3757d2	-0.011190372
254	0x3ca0bada	0.019620348
255	0xbd53914f	-0.05165225

conv2.bias f4 [16]
0	0xbc721dda	-0.014777625
1	0x3f14a833	0.5806915
2	0xbca9ed70	-0.020743102
3	0xbdc8d754	-0.098066956
4	0xbd6ef065	-0.058334727
5	0x3e9ed823	0.31024274
6	0xbb6bb6c9	-0.0035967103
7	0xbd343ca1	-0.044003133
8	0x3eea2117	0.4572837
9	0x3e5f27ed	0.21792574
10	0x3c07777b	0.008268232
11	0xbf2fcf6e	-0.6867589
12	0x3dde9578	0.10868353
13	0x3df075ca	0.117412165
14	0x3d52c8c5	0.051461
15	0x3ef95af2	0.48702198

fc1.weight f4 [120, 400]
0	0xbcbb2465	-0.022844503
1	0x3d6fbaa6	0.05852761
2	0x3d358973	0.044320535
3	0x3d966629	0.07343704
4	0x3d46f281	0.048571113
5	0xba7400b4	-0.0009307966
6	0xbb2795a2	-0.0025571366
7	0xbcaa85e2	-0.020815793
8	0xbca46f7a	-0.020072687
9	0xbd620a67	-0.0551857
10	0x3b983261	0.0046446775
11	0xbce633bb	-0.028100839
12	0xbd31889d	-0.043343175
13	0xbdab76be	-0.08372258
14	0xbc8b6bb1	-0.017019125
15	0x3d0d6f2c	0.03452985
16	0xbd79bb3a	-0.06096957
17	0x3cb063dc	0.021531992
18	0x3aabafbc	0.0013098638
19	0x3d020b54	0.031749085
20	0x3e21b42f	0.15791391
21	0x3d9951d0	0.074863076
22	0x3ca9a1ea	0.02070709
23	0x3cb1e2b7	0.021714551
24	0xbca27571	-0.019831391
25	0xbd0be064	-0.034149542
26	0x3bb95ca4	0.0056567956
27	0xbca1611a	-0.019699622
28	0xbc2a4f13	-0.010394829
29	0x3c91f7d5	0.01781837
30	0xbc9cdb78	-0.01914762
31	0x3d302485	0.043003578
32	0x3d25119b	0.040299993
33	0xbd83de86	-0.06438927
34	0x3ca4717a	0.020073641
35	0xbd97678b	-0.07392796
36	0x3c84a37d	0.016191239
37	0xbd3edd77	-0.046597924
38	0xbd765a76	-0.060144864
39	0x3d330d8a	0.043714084
40	0xbdc0cd2b	-0.09414133
41	0xbd1aa2e0	-0.037752986
42	0xbba1f5fa	-0.004942653
43	0xbd0a6763	-0.033790004
44	0xbd1d7263	-0.038439166
45	0xbe019a5c	-0.1265654
46	0xbd64e77e	-0.05588483
47	0xbd237e4f	-0.03991538
48	0xbdf11a4f	-0.11772596
49	0xbc940acd	-0.018071556
50	0xbd482fb8	-0.048873633
51	0xbc3fa8fa	-0.011698002
52	0xbd4aabcb	-0.04948024
53	0x3d140cc6	0.036144994
54	0x3c9bd21b	0.019021085
55	0x3c52be6a	0.012862781
56	0x3cd4ec8d	0.025991702
57	0x3c2bd90e	0.010488762
58	0x3d1ac9b2	0.037790008
59	0xbd2245cc	-0.039617345
60	0xbcc3db28	-0.023908213
61	0xbbb084e1	-0.005386934
62	0xbd4dea24	-0.050272122
63	0xbc7075b3	-0.014676499
64	0x3cbb1c2d	0.022840584
65	0xbcd1e83c	-0.025623433
66	0xbd215f77	-0.039397683
67	0x3d1f9242	0.03895784
68	0x3d3005b6	0.042974196
69	0x3c8ae2a1	0.016953768
70	0x3a91cf1d	0.0011124347
71	0xbc3dfec5	-0.011596386
72	0x3ccd41fe	0.025055882
73	0xbd42cc13	-0.0475579
74	0x3c8c6806	0.017139446
75	0xbc8ce2a1	-0.017197909
76	0x3cd061b2	0.02543721
77	0xbc8db0e6	-0.017296266
78	0x3c327eb3	0.010894465
79	0x3d889b7e	0.06670283
80	0xbccdc169	-0.02511664
81	0xbd9e05a8	-0.077159226
82	0xbd56073e	-0.052253
83	0x3cab23e2	0.020891134
84	0x3d16e4bf	0.036839243
85	0xbdbbb1a9	-0.09164745
86	0x3bbcbebd	0.0057600425
87	0x3c9b61d9	0.018967556
88	0x3d3142da	0.043276645
89	0xbc98a307	-0.018632425
90	0xbb3c2ef8	-0.002871452
91	0x3d10c533	0.035344314
92	0xbb29dc35	-0.0025918607
93	0x3d6a64c5	0.057225008
94	0xbc2ea788	-0.01066006
95	0xbcdf7fb0	-0.027282566
96	0x3cd7712c	0.026299082
97	0xbbcf32cd	-0.0063231946
98	0xbbcd716b	-0.006269624
99	0x3c39642d	0.011315388
100	0x3be9728f	0.007124252
101	0xbd0deb68	-0.03464833
102	0x3c07a08f	0.008278026
103	0xbd5f5ac7	-0.05452993
104	0xbd1c539a	-0.038165666
105	0xbd02a66c	-0.031896994
106	0xba90a8ef	-0.0011036674
107	0x39e7cd31	0.00044212633
108	0xbd791cd9	-0.060818527
109	0xbc951703	-0.01819945
110	0xbb04f80c	-0.002028945
111	0xbd9f2f7c	-0.07772729
112	0xbcbf238c	-0.02333238
113	0xbb1f6c3e	-0.0024325992
114	0xbc180b2b	-0.009280006
115	0xbd9bf6f9	-0.07615466
116	0x3b9bd929	0.004756112
117	0xbd033dfb	-0.03204153
118	0xbc85b282	-0.01632047
119	0x3c0d3d50	0.008620575
120	0xbcd185b7	-0.025576456
121	0x3dd0d503	0.10196879
122	0x3d8d29c9	0.068927355
123	0x3db6de87	0.089291625
124	0xbcd3a240	-0.025834203
125	0x3d274488	0.04083684
126	0x3d4bd556	0.049764
127	0x3da7936c	0.08182415
128	0x3d6941ae	0.056947403
129	0x3d8d4ac0	0.06899023
130	0x3c41d0cb	0.011829565
131	0x3d008712	0.031378813
132	0x3d1891d8	0.037248462
133	0x3daf6f98	0.08566207
134	0xbd06fbc3	-0.032954942
135	0x3d708577	0.058721032
136	0x3c290b70	0.010317668
137	0x3d75a365	0.05997028
138	0xbb71684f	-0.0036835854
139	0x3bf83aab	0.007575353
140	0x3d1acacf	0.03779107
141	0x3cb8a219	0.022538232
142	0x3c41fe5c	0.011840429
143	0x3d97ca5d	0.074116446
144	0x3d88e713	0.06684699
145	0xbb758058	-0.0037460532
146	0x3d893f1a	0.06701489
147	0x3dd96206	0.106143996
148	0x3d7e350c	0.06206231
149	0x3dd135f6	0.1021537
150	0xbcc45c9c	-0.02396994
151	0xbaa4d491	-0.0012575557
152	0xbd37c047	-0.044861104
153	0x3c8f7135	0.017510036
154	0x3d6ee263	0.058321368
155	0x3d13ba5c	0.036066398
156	0xbc6b2f75	-0.014354576
157	0xbc648445	-0.013947551
158	0xbcc9e91b	-0.024647286
159	0x3ce2df25	0.027694294
160	0xbd97dd5a	-0.07415266
161	0x3d34115e	0.043961875
162	0xbbd5b6e2	-0.0065220455
163	0x3caa5240	0.020791173
164	0x3d80ec85	0.062951125
165	0xbdd18067	-0.10229569
166	0xbc4c4b76	-0.012469163
167	0xbcf182f7	-0.029481394
168	0xbcab04fc	-0.0208764
169	0xbc4ba11c	-0.012428548
170	0xbd38ba4d	-0.045099545
171	0xbd97cf2d	-0.074125625
172	0xbe2da56f	-0.16957639
173	0xbcccaef1	-0.024985762
174	0x3d4959c6	0.04915788
175	0xbcb1af34	-0.021689989
176	0xbd70502d	-0.05867021
177	0xbc8991f3	-0.016793227
178	0xbca59bc2	-0.020215873
179	0xbd36da0e	-0.044641547
180	0xb900f91c	-0.00012299832
181	0x3c6c7ec4	0.01443452
182	0x3bf90596	0.007599543
183	0x3d3c0c63	0.04591025
184	0x3c96a58f	0.018389491
185	0xbce8bb5f	-0.028409658
186	0x3c57846e	0.013154132
187	0x3d383842	0.044975527
188	0x3d02c67e	0.03192758
189	0x3d2cc0f0	0.042176187
190	0xbd363d2e	-0.04449194
191	0xbcc133b3	-0.023584222
192	0xbc94c5d1	-0.018160732
193	0x3c96d696	0.01841287
194	0x3c0705d7	0.008241138
195	0xbd854677	-0.06507581
196	0xbd7c29ef	-0.06156343
197	0xbb30edd8	-0.0026997235
198	0xbc8a8883	-0.016910797
199	0xbc97e1ad	-0.018540228
200	0x3d5e70ff	0.05430698
201	0x3d742cca	0.059613027
202	0x3d8b3796	0.067977116
203	0x3cff1d18	0.031141803
204	0x3cfb2746	0.030658375
205	0xbc398be3	-0.0113248555
206	0xbc2e1587	-0.01062525
207	0x3d57491c	0.052559957
208	0x3ccd9f92	0.025100503
209	0x3a84cb48	0.0010131383
210	0xbce12c3a	-0.02748691
211	0x3c49bf63	0.012313697
212	0x3c207751	0.009794072
213	0x3d2ddbe8	0.042446047
214	0x3bb2d7c3	0.0054578497
215	0xbd98bd51	-0.07457984
216	0x3c5d7293	0.013516086
217	0xbc7a0ade	-0.01526138
218	0xbc20d944	-0.009817425
219	0xbd26f98f	-0.04076534
220	0xbe01b77e	-0.12667653
221	0xbdc90b55	-0.098166145
222	0xbc820168	-0.015869811
223	0xbd002d21	-0.03129304
224	0xbdbfb1cf	-0.09360086
225	0x3d9d1e39	0.0767178
226	0x3dee691f	0.11641144
227	0x3d5c013a	0.053712107
228	0x3d4e95ce	0.050435834
229	0x3dc42bf3	0.09578695
230	0x3c2446b8	0.010026626
231	0xbd35cf0c	-0.04438691
232	0x3d2be14f	0.041962918
233	0x3cabe685	0.020983944
234	0xbd2c5229	-0.04207054
235	0xbd100d6a	-0.035169043
236	0xbd657f02	-0.056029327
237	0xbd7342e2	-0.059389956
238	0xbb9f6320	-0.0048641115
239	0xbc066557	-0.008202872
240	0x3d09da6f	0.03365558
241	0x3c2b7b04	0.010466341
242	0x3db994b9	0.0906157
243	0x3cebccfc	0.028784268
244	0xbcc4e1e5	-0.024033496
245	0xbcde2957	-0.027119322
246	0x3c7e2be1	0.015513391
247	0x3d307f5f	0.04309022
248	0x3d66d7fe	0.05635833
249	0xbc6d7a4d	-0.014494491
250	0xbc661713	-0.014043587
251	0x39b62028	0.00034737703
252	0xbd4b85ba	-0.04968808
253	0xbcd1e80a	-0.02562334
254	0xbd42e815	-0.047584612
255	0xbc0c2e75	-0.008555998

fc1.bias f4 [120]
0	0x3b202a32	0.0024439213
1	0x3e100bac	0.14066952
2	0x3d2b5f24	0.04183878
3	0x3d12911e	0.035782926
4	0x3bc9c9af	0.0061580758
5	0x3d002cce	0.03129273
6	0x3d003636	0.0313017
7	0x3d85f5a4	0.06540993
8	0x3ba0aecb	0.0049036494
9	0x3df2cf6f	0.11855971
10	0xbc450870	-0.012025937
11	0x3e152249	0.1456386
12	0xbddc6b0b	-0.10762604
13	0x3d1d0400	0.038333893
14	0x3dbe1211	0.0928079
15	0x3c6a19d9	0.014288389
16	0x3dcf79f5	0.10130683
17	0x3e1321e0	0.14368391
18	0x3d5cc4d0	0.053898633
19	0x3cbb571b	0.022868684
20	0x3e5ff5bd	0.21871085
21	0x3d047900	0.032341957
22	0x3d30dfbf	0.04318213
23	0x3c51dd1d	0.012809065
24	0x3c2568ae	0.010095758
25	0x3dd64df4	0.10464087
26	0x3d9a4bf9	0.07534022
27	0xbc6d2d89	-0.014476188
28	0x39866dad	0.00025640187
29	0xbc5ab034	-0.013347674
30	0x3d509cd2	0.050930806
31	0x3e1006ce	0.14065096
32	0xbe3ef473	-0.18647937
33	0x3cd4d7a9	0.025981741
34	0xbc35546b	-0.01106749
35	0xbdc0095e	-0.09376787
36	0xbd3f6dde	-0.046735637
37	0x3d3f2075	0.046661813
38	0xbd4b083f	-0.04956841
39	0xbdc69fab	-0.09698423
40	0x3af75532	0.0018869995
41	0x3d37f6aa	0.04491297
42	0xbced5445	-0.028970847
43	0xbd8beee0	-0.06832671
44	0xbd3e07d2	-0.046394177
45	0xbbf4f862	-0.0074758986
46	0x3e094b3a	0.13407603
47	0x3d5a463f	0.05328965
48	0x3d51aa1f	0.05118763
49	0xbe29dfff	-0.16589354
50	0xbbc7b4a8	-0.006094534
51	0x3dc18af9	0.09450335
52	0xbc584397	-0.013199708
53	0x3d9d347f	0.076760285
54	0xbe0ff793	-0.14059286
55	0xbd55b44e	-0.052173905
56	0x3ddafe72	0.10693063
57	0x3dd3df23	0.10345294
58	0x3dcbb01e	0.09945701
59	0x3c3099f2	0.010778891
60	0x3d4bb5a4	0.049733773
61	0x3d82baa7	0.06383257
62	0xbd51c398	-0.051211923
63	0x3dd07cc5	0.10180048
64	0x3d05fa53	0.03270943
65	0xbcb262b0	-0.021775573
66	0xbb3247b3	-0.002720338
67	0x3dcdede4	0.1005514
68	0x3d3cc2d9	0.04608426
69	0x3dd26c08	0.102745116
70	0xbca0c01e	-0.019622859
71	0x3cd873ee	0.026422467
72	0x3d1b631d	0.03793632
73	0x3d93831c	0.072027415
74	0x3d26dcda	0.040737964
75	0xbd1899c0	-0.037256002
76	0xbd8b8736	-0.06812899
77	0x3d93fd34	0.07226029
78	0xbcaf596a	-0.02140494
79	0x3c19c0a3	0.009384307
80	0x3d3dc302	0.046328552
81	0x3d0776e1	0.033072356
82	0xbd0bfd8a	-0.03417734
83	0xbd3080ad	-0.043091465
84	0x3e13debc	0.14440435
85	0x3ca4e33f	0.02012789
86	0x3d70059d	0.058599103
87	0x3d0bf77c	0.034171566
88	0xbd63bfa4	-0.055602685
89	0x3e4bfd05	0.19920738
90	0x3e17608c	0.14782923
91	0xbe016976	-0.12637886
92	0xbd0128f4	-0.031533197
93	0xbc855c8b	-0.01627948
94	0x3dc3ea94	0.095662266
95	0x3d862984	0.06550887
96	0x3def6efc	0.116910905
97	0x3bb45e0c	0.0055043753
98	0x3cd0c187	0.025482906
99	0xbc31a577	-0.010842673
100	0x3cf68e43	0.030097133
101	0x3d3cc15d	0.046082843
102	0x3d3eec1c	0.04661189
103	0x3c92f371	0.017938348
104	0x3d9a8af6	0.07546036
105	0x3b277e3f	0.0025557426
106	0x3bc80c96	0.006105016
107	0xbcd982d5	-0.026551643
108	0xbcb7765e	-0.022395309
109	0xbba1f989	-0.004943077
110	0xbcb893a8	-0.022531345
111	0x3d8cffb7	0.06884711
112	0x3c9460e5	0.01811261
113	0x3dfe2b30	0.12410581
114	0x3cf11a27	0.029431416
115	0x3c6d5639	0.014485889
116	0x3cca7e47	0.024718417
117	0x3d970d3b	0.073755704
118	0x3dd9878a	0.10621555
119	0x3a03f6c3	0.0005034024

fc2.weight f4 [84, 120]
0	0xbda3f615	-0.08005921
1	0xbd60d78a	-0.054893054
2	0xbc56351f	-0.0130741885
3	0x3da15d38	0.07879108
4	0xbc538578	-0.012910239
5	0x3cf11122	0.029427115
6	0xbdab0de0	-0.08352256
7	0xbc077ba6	-0.008269226
8	0xbc86e65a	-0.016467262
9	0x3deefa3f	0.116688244
10	0x3ccf542c	0.025308691
11	0x3e3b9cd1	0.1832154
12	0x3c9d932b	0.019235214
13	0x3caeb339	0.021325694
14	0x3db1ba9b	0.0867817
15	0xbcd0cb61	-0.025487604
16	0x3e02d1b3	0.12775306
17	0x3daff7b8	0.085921705
18	0xbcb67fba	-0.022277702
19	0xbbe0b736	-0.006857778
20	0x3e104e77	0.14092432
21	0x3b86f7d6	0.0041189
22	0x3cb6f15c	0.022331886
23	0x3c748f1c	0.014926698
24	0x3d5a2b8b	0.053264182
25	0xbd96c69c	-0.073621005
26	0xbd8f01a5	-0.069827355
27	0x3c02b891	0.007978574
28	0x3d976c8c	0.073937505
29	0xbdae4b60	-0.085104704
30	0xbd897e2d	-0.06713519
31	0x3d8208d3	0.06349339
32	0x3d8606dc	0.06544277
33	0xbc77cb73	-0.01512419
34	0x3c397e6b	0.011321644
35	0xbd6bec71	-0.057598535
36	0x3db64528	0.08899909
37	0xbc350923	-0.011049542
38	0x3d8223eb	0.06354507
39	0x3d7a92df	0.061175223
40	0x3d1375eb	0.036001127
41	0x3d76a52e	0.06021612
42	0xbda3afe6	-0.07992534
43	0x3d75832e	0.059939556
44	0xbbe859a8	-0.007090766
45	0x3c3b8ff4	0.011447895
46	0x3da0a11c	0.07843229
47	0xbd6977f2	-0.056999154
48	0xbdab97fb	-0.08378597
49	0xbdc4e5bd	-0.096141316
50	0xbd9ea7cf	-0.07746851
51	0xbc0a1b40	-0.0084293485
52	0x3d4d2295	0.050081808
53	0xbcff931d	-0.031198079
54	0x3d88b28b	0.06674679
55	0x3c20fbbd	0.009825644
56	0xbd71b05b	-0.059006076
57	0x3d91c24c	0.07117137
58	0xbd017214	-0.031602934
59	0xbcf7d26d	-0.030251706
60	0x3dacfb2d	0.084463455
61	0x3c4d3007	0.012523658
62	0xbb9f90b6	-0.004869546
63	0x3ccd1626	0.025034975
64	0x3ca3cc01	0.019994738
65	0xbe1391c6	-0.14411077
66	0xbd6ef5a8	-0.058339745
67	0x3d020bc1	0.03174949
68	0x3c33f4a4	0.01098362
69	0xbbf1e5ec	-0.007382145
70	0xbbb8c47c	-0.005638657
71	0x3b9630e3	0.0045834645
72	0xbdb70999	-0.089373775
73	0xbc9d79d2	-0.019223128
74	0x3d2332a8	0.03984323
75	0x3da1d03e	0.07901047
76	0xbd8ff69f	-0.07029461
77	0x3d751381	0.059833053
78	0xbd71a220	-0.058992505
79	0x3c2e7dc8	0.010650106
80	0xbcc29c96	-0.023756307
81	0xbd542ec3	-0.051802408
82	0xbe0e0e05	-0.13872536
83	0xbda58083	-0.08081152
84	0x3d1c9503	0.038228046
85	0x3d7c9d83	0.061673652
86	0xbdc91b9a	-0.09819718
87	0xbe24cea7	-0.16094457
88	0xbd829753	-0.06376519
89	0x3d29967c	0.04140328
90	0x3dd942c4	0.10608438
91	0xbdac33c0	-0.08408308
92	0x3d5212fd	0.05128764
93	0x3d5a0185	0.053224105
94	0xbdb1f853	-0.08689942
95	0x3d5bd6a5	0.053671498
96	0x3c2ae60d	0.010430825
97	0xbdc8c07f	-0.09802341
98	0x3d564d16	0.05231961
99	0x3c9515fb	0.018198958
100	0x3de41ae4	0.111379415
101	0xbde99847	-0.11405998
102	0x3b66ef85	0.003523798
103	0x3cc59dd4	0.02412311
104	0xbd124a22	-0.03571523
105	0x3d0d35dd	0.034475196
106	0xbd55cc9d	-0.052197088
107	0x3c819b21	0.015821042
108	0xbd8ca802	-0.068679824
109	0xbc944404	-0.018098839
110	0xbdbcb129	-0.09213478
111	0xbdf48046	-0.11938529
112	0x3da067e7	0.07832318
113	0x3e108287	0.14112292
114	0xbd050bd7	-0.032481994
115	0x3c9ad787	0.0189016
116	0xbc548e9f	-0.012973457
117	0x3c95753d	0.01824438
118	0x3ddb572a	0.107099846
119	0xbc2093e7	-0.009800888
120	0x3a0c8189	0.00053598784
121	0x3d8814d0	0.06644595
122	0x3b71999a	0.0036865235
123	0xbc0185e0	-0.007905453
124	0x3db8d9bf	0.09025907
125	0xbb9fb947	-0.0048743817
126	0x3d7b0b62	0.061290152
127	0x3da3ef18	0.08004588
128	0x3d85760c	0.06516656
129	0xbba8101a	-0.0051288726
130	0x3d42e3c6	0.047580503
131	0x3ced2062	0.028946105
132	0xbd8ff4d0	-0.07029116
133	0xbd09f7dc	-0.033683643
134	0x3d0eaf89	0.034835372
135	0x3d5b1c41	0.053493742
136	0xbd8ec795	-0.06971661
137	0xbce57972	-0.028012011
138	0x3d9887d5	0.07447783
139	0xbc0fe1da	-0.008781875
140	0x39916e5b	0.00027738776
141	0xbda7608b	-0.08172711
142	0x3d6d8435	0.05798741
143	0xbdbaf135	-0.09128038
144	0x3d9b0854	0.07569948
145	0x3c91bbdf	0.01778978
146	0x3d87f799	0.066390224
147	0xbd44a221	-0.04800618
148	0x3da18762	0.0788715
149	0x3d4e2b02	0.050333984
150	0x3d83f4e3	0.06443193
151	0x3d8310f7	0.0639972
152	0xbd6f98cf	-0.05849534
153	0x3d06ad4c	0.032880113
154	0x3cec34ed	0.02883383
155	0xbc99a76e	-0.018756595
156	0xbc166fa3	-0.00918189
157	0xbc8376f2	-0.016047928
158	0x3daf9e0f	0.08575069
159	0x3d98ace8	0.07454854
160	0x3cc6804a	0.024231095
161	0xbdb7c50a	-0.08973129
162	0xbd71c8cd	-0.05902939
163	0xbcf69c96	-0.030103963
164	0xbdacbfbb	-0.08435007
165	0x3d42b43f	0.047535177
166	0xbc379c69	-0.011206725
167	0xbb9fcdb6	-0.0048768176
168	0xbd0aa129	-0.0338451
169	0xbdcb74fd	-0.09934423
170	0x3d35fbdf	0.044429656
171	0x3d115918	0.035485357
172	0x3d8b99d8	0.06816453
173	0x3d52ac81	0.051434044
174	0x3d8fdd69	0.070246525
175	0xbd954817	-0.07289141
176	0xbdb975a6	-0.09055643
177	0x3cba4dbe	0.022742148
178	0x3d7c782f	0.061638054
179	0xbcd35752	-0.025798474
180	0xbd2f9460	-0.04286611
181	0xbcf4d270	-0.0298855
182	0xbd725bd8	-0.05916962
183	0xbd11dbb2	-0.03560991
184	0x3d9ef102	0.07760812
185	0xbd3ec11f	-0.046570893
186	0xbd198a02	-0.03748513
187	0x3d4a4677	0.049383607
188	0xbcf500a5	-0.029907534
189	0x3d485c05	0.04891588
190	0x3d036b02	0.032084472
191	0xbda25f66	-0.07928352
192	0xbc3fbf68	-0.01170335
193	0xbc9cd896	-0.019146245
194	0xbc8d4d13	-0.017248666
195	0x3d170eb0	0.03687924
196	0xbc4a757a	-0.01235711
197	0xbd52b9d4	-0.05144675
198	0x3d6cc596	0.05780562
199	0xbdad5cfd	-0.08465002
200	0x3c401d04	0.011725668
201	0xbaa15c73	-0.0012310877
202	0x3d8a61fe	0.06756972
203	0xbc818072	-0.015808318
204	0x3d747f6a	0.059691824
205	0xbb88461f	-0.0041587497
206	0xbdb63fc8	-0.08898884
207	0xbd5cca1c	-0.053903684
208	0xbd688e7a	-0.0567765
209	0x3bfe6a85	0.007764163
210	0x3c0f3e56	0.008742889
211	0xbdb44299	-0.08801765
212	0xbd66f504	-0.05638601
213	0x3d3b0d3a	0.04566691
214	0xbd2998c1	-0.041405443
215	0x3c8dce36	0.017310243
216	0x3d9a9ed9	0.07549829
217	0xbda6e332	-0.08148803
218	0xbd8ddca3	-0.06926849
219	0x3da1902b	0.07888826
220	0xbbef0cf4	-0.0072952453
221	0xbd0dcd1e	-0.034619443
222	0xbdaaee1c	-0.08346197
223	0x3d54e814	0.05197914
224	0x3b9feeed	0.004880777
225	0xbdcc8da2	-0.09987952
226	0x3d1e0d92	0.03858716
227	0xbdaaac00	-0.08333588
228	0x3d885adf	0.06657957
229	0xbc80564d	-0.015666151
230	0xbd40f51d	-0.04710876
231	0xbd8617e8	-0.065475285
232	0x3c9ed059	0.019386457
233	0xbd7ce316	-0.061740004
234	0xbd5c5596	-0.05379256
235	0xbd16aa79	-0.03678367
236	0xbce92524	-0.028460093
237	0xbd8c10e7	-0.06839161
238	0x3da0628b	0.078312956
239	0xbd29f789	-0.041495834
240	0xbd603c9a	-0.054745294
241	0xbdf83626	-0.12119703
242	0xbd7c6bb9	-0.06162617
243	0x3de53d14	0.1119329
244	0x3e12f08c	0.14349574
245	0x3d9cbe93	0.07653537
246	0xbddd8a94	-0.10817447
247	0x3e163c5d	0.14671464
248	0x3b6bdae9	0.0035988635
249	0x3dc4616a	0.09588893
250	0x3c1984f8	0.009370081
251	0xbb579724	-0.0032896483
252	0x3dd4af80	0.103850365
253	0x3aee1f9f	0.0018167383
254	0x3c4e001a	0.012573266
255	0x3b173fb8	0.002307875

fc2.bias f4 [84]
0	0x3e866fdb	0.26257214
1	0xbd86f4be	-0.065896496
2	0xbd885310	-0.06656468
3	0x3e5b3fd9	0.21411075
4	0xbd299128	-0.041398197
5	0x3e20dd44	0.15709406
6	0xbc419c91	-0.0118171135
7	0x3e7ada58	0.24497354
8	0x3c0a19ef	0.008429035
9	0x3cfc838c	0.030824445
10	0x3dc24101	0.09485055
11	0x3e256605	0.16152199
12	0x3e32be5a	0.17455426
13	0xbdba37d4	-0.090926796
14	0xbc394311	-0.011307494
15	0x3e54c699	0.20778884
16	0xbd591acf	-0.053004082
17	0xbc01abdf	-0.007914512
18	0xbd745c73	-0.05965848
19	0xbddf6c68	-0.10909349
20	0x3d37af35	0.044844825
21	0xbcafa419	-0.021440553
22	0xbd3c8763	-0.046027552
23	0x3cf53b8d	0.029935623
24	0x3e21fd51	0.15819289
25	0xbc517262	-0.012783619
26	0x3e4f8706	0.20266351
27	0xbdf8a12e	-0.121401176
28	0x3e2ab40f	0.1667025
29	0x3d7a7cfe	0.061154358
30	0xbca72d21	-0.020407261
31	0x3cb4ca09	0.022068994
32	0x3e4aa1aa	0.19788232
33	0x3dee8626	0.116466805
34	0x3df0e7b5	0.117629446
35	0xbc90eff2	-0.01769254
36	0x3db1c329	0.08679802
37	0xbd95ec7d	-0.07320497
38	0x3e3d7f30	0.1850555
39	0x3b08b866	0.0020861863
40	0x3e5e20a2	0.21692136
41	0xbdc73902	-0.0972767
42	0x3d9d2d89	0.07674701
43	0xbc162bf2	-0.009165751
44	0xbd4f50df	-0.050614234
45	0xbd8fe541	-0.070261486
46	0x3d1082c8	0.035280973
47	0x3e26cba7	0.16288625
48	0xbd1722df	-0.03689849
49	0x3d48a350	0.048983872
50	0x3eac0d41	0.33603862
51	0x3e6bdfa9	0.23034538
52	0xbd336341	-0.043795828
53	0x3bd084e4	0.006363498
54	0xbd9277ad	-0.071517326
55	0x3d92ed4a	0.071741655
56	0x3e1a5700	0.1507225
57	0xbde40303	-0.11133387
58	0x3bd4dd40	0.0064961016
59	0xbcfdb543	-0.030970221
60	0xbc3c3f5b	-0.0114897145
61	0xbd846824	-0.06465176
62	0xbc87e1da	-0.016587187
63	0x3cacd99f	0.021099864
64	0x3e12f7fd	0.14352413
65	0xbd03e5d5	-0.032201607
66	0x3cac39e9	0.021023707
67	0x3c85836d	0.01629802
68	0x3e3e993d	0.18613143
69	0x3bd407f8	0.0064706765
70	0x3d474abb	0.048655253
71	0x3e12cb77	0.14335428
72	0x3e30fc32	0.17283705
73	0x3d58058d	0.05273967
74	0xbc84830b	-0.016175767
75	0x3eb078d1	0.34467176
76	0x3e2c0ea1	0.16802455
77	0xbdb24c74	-0.087059885
78	0x3d63dafb	0.055628758
79	0xbda90254	-0.08252397
80	0x3a9505c1	0.0011369513
81	0x3e3e4772	0.18581942
82	0x3c85276d	0.016254151
83	0x3e2496e4	0.16073185

fc3.weight f4 [10, 84]
0	0xbe7fde10	-0.24987054
1	0xbdd071aa	-0.1017793
2	0x3e82e1f9	0.25563028
3	0x3e1c6f15	0.1527675
4	0xbc75a834	-0.014993716
5	0xbe4b302f	-0.198426
6	0xbe06511f	-0.13116883
7	0xbe6b22b5	-0.22962458
8	0xbd190980	-0.037362576
9	0xbe0bdd33	-0.136586
10	0xbd9bbbd0	-0.07604182
11	0x3c775c1f	0.015097647
12	0x3dbfbe71	0.09362496
13	0xbdd5a8f0	-0.10432613
14	0xbdad9a1d	-0.084766604
15	0xbb5bfc56	-0.0033567152
16	0x3e05eb9c	0.13078159
17	0xbdbd8c17	-0.09255236
18	0x3d9c08d7	0.076188736
19	0x3e6697d5	0.22518857
20	0xbd78ef5a	-0.06077514
21	0xbd292d01	-0.041302685
22	0x3e162656	0.14663061
23	0x3d133de2	0.035947688
24	0x3e94d228	0.29066586
25	0xbdba3905	-0.09092907
26	0x3c88ac0f	0.016683606
27	0x3e265b71	0.1624582
28	0x3dd7a9ea	0.105304554
29	0xbd98eb84	-0.07466796
30	0xbcd1b6f8	-0.025599942
31	0x3e0b70f1	0.13617302
32	0xbe367179	-0.17816724
33	0xbda3418f	-0.07971489
34	0xbcab7402	-0.02092934
35	0xbddc831c	-0.10767195
36	0xbdcf520f	-0.10123073
37	0x3b8003d0	0.0039067045
38	0x3bd4ce56	0.0064943237
39	0xbd8308e8	-0.06398183
40	0x3c4c3106	0.01246286
41	0x3d4a5dbc	0.0494058
42	0xbd8ebefd	-0.06970022
43	0x3e7a9914	0.24472457
44	0xbd585f37	-0.05282518
45	0x3e03a4f1	0.12855889
46	0xbe2c3e42	-0.16820624
47	0x3cc4c32e	0.02401885
48	0xbd311311	-0.043231074
49	0x3e2ee984	0.17081267
50	0xbe6722aa	-0.22571817
51	0x3e383de8	0.17992365
52	0x3da451b9	0.080234
53	0x3b2191f2	0.002465364
54	0x3e37989a	0.17929307
55	0x3debd7b3	0.11515751
56	0xbe4309b5	-0.19046672
57	0xbda5cdd9	-0.08095903
58	0xbdb94ad5	-0.09047476
59	0xbdcaaec6	-0.09896617
60	0xbdb3f14e	-0.087862596
61	0xbd311fd0	-0.04324323
62	0x3d223f7c	0.039611325
63	0x3d4018bf	0.0468986
64	0x3d2ae2b1	0.041720096
65	0x3df2f441	0.11862994
66	0x3e50dfd6	0.20397887
67	0x3d5df799	0.054191206
68	0x3e895a07	0.26826498
69	0x3e3fbe9a	0.18725052
70	0x3d361971	0.044457857
71	0xbcfafe74	-0.03063891
72	0x3cae758e	0.021296289
73	0x3d5bd444	0.05366923
74	0xbc2b8185	-0.010467892
75	0x3e564067	0.20923005
76	0xbe8690f3	-0.26282462
77	0x3da0f8e9	0.07859976
78	0xbdb0978f	-0.086226575
79	0x3e179c30	0.14805675
80	0x3e40bb94	0.18821555
81	0x3ccbcb41	0.024877192
82	0xbc169bff	-0.009192466
83	0x3e6a6f27	0.22893964
84	0xbeb298bd	-0.34882155
85	0xbc8e3308	-0.017358318
86	0xbd9cb2dd	-0.07651303
87	0xbdfd0b9f	-0.12355732
88	0xbbef2416	-0.007298003
89	0xbd6a0593	-0.057134222
90	0x3dc50aa1	0.09621168
91	0xbe4b052b	-0.1982619
92	0xbe1b305d	-0.15155168
93	0xbc8f11e0	-0.017464578
94	0xbe3cffb3	-0.18456917
95	0x3de78ce2	0.11306168
96	0xbe11bdbf	-0.14232539
97	0xbd82212d	-0.06353984
98	0xbdb6ff32	-0.089353934
99	0xbe7e5321	-0.24836399
100	0x3aa95ca2	0.0012921283
101	0xbe06e0a4	-0.13171631
102	0x3cf57f10	0.029967815
103	0xbcf06e68	-0.02934952
104	0xbd3e7fa4	-0.046508446
105	0x3e108ddf	0.1411662
106	0xbc93f75d	-0.018062288
107	0x3e94a0b8	0.2902887
108	0xbdc72191	-0.09723199
109	0x3d970aa7	0.07375079
110	0xbd080087	-0.033203628
111	0x3e77aae6	0.24186286
112	0xbe3ff34d	-0.18745156
113	0x3e3f198d	0.1866209
114	0x3ca374ab	0.019953093
115	0xbeb500ad	-0.35352078
116	0xbcd8f43a	-0.026483644
117	0xbe1d4459	-0.15358104
118	0xbde341ea	-0.110965565
119	0x3e358e3a	0.17730036
120	0x3d8273eb	0.06369766
121	0x3ecd3b49	0.40084293
122	0x3df54dd4	0.11977735
123	0xbc92b546	-0.017908704
124	0xbe132a85	-0.14371689
125	0xbd90638f	-0.07050239
126	0xbd82ddcb	-0.0638996
127	0x3e78ce68	0.24297488
128	0x3db1e66c	0.086865276
129	0x3d9ac220	0.07556558
130	0xbd62fce6	-0.055416964
131	0x3dd75549	0.10514314
132	0xbbada191	-0.005298801
133	0x3e797065	0.24359281
134	0xbca2cc39	-0.019872772
135	0xbd8538c5	-0.065049686
136	0xbdab4798	-0.08363265
137	0x3ddcb38f	0.107764356
138	0x3da5381a	0.08067341
139	0x3e519939	0.20468606
140	0xbd413025	-0.047165055
141	0x3d93bb23	0.07213428
142	0xbd9c1e85	-0.07623009
143	0x3d0178b9	0.03160927
144	0x3dcf3273	0.10117044
145	0xbd97f09b	-0.07418939
146	0x3cced98c	0.025250219
147	0xbd167314	-0.03673084
148	0x3d217423	0.039417397
149	0x3ce4b419	0.027917909
150	0xbe05532d	-0.1302001
151	0x3e03b8f1	0.12863518
152	0xbcada638	-0.021197423
153	0x3ce19569	0.027537065
154	0xbdcd7e4b	-0.10033854
155	0x3e0c5535	0.13704379
156	0xbe92729e	-0.2860307
157	0x3d06395d	0.03276955
158	0x3db611b7	0.088900976
159	0xbe5f88bd	-0.21829505
160	0xbb8ad53a	-0.0042368444
161	0xbd1863a6	-0.037204407
162	0x3e6a9734	0.22909242
163	0x3e865d66	0.26243132
164	0xbdbb352f	-0.09141003
165	0xbd8d32c6	-0.0689445
166	0x3d2a3713	0.04155643
167	0x3e0230e2	0.1271396
168	0x3e641698	0.22274244
169	0x3da8e772	0.0824727
170	0x3d85bbba	0.065299466
171	0x3dbd26a9	0.092358895
172	0xbd98fc3b	-0.07469984
173	0x3caf6c39	0.02141391
174	0xbd96e956	-0.07368724
175	0x3e67b94c	0.22629279
176	0xbe122db2	-0.14275244
177	0xbc946f88	-0.018119588
178	0xbdb4edbe	-0.08834408
179	0xbb945681	-0.0045269136
180	0x3ce24add	0.027623588
181	0x3d59572d	0.053061653
182	0x3d654748	0.055976182
183	0x3dcb59a0	0.09929204
184	0x3e0bfc85	0.13670547
185	0xbe28e555	-0.16493733
186	0xbd77e11d	-0.06051742
187	0x3d86326a	0.065525845
188	0x3e05aeef	0.13055013
189	0x3dcb02b6	0.099126264
190	0xbd5a3855	-0.05327638
191	0xbdd46a0d	-0.1037179
192	0x3e69c282	0.22828105
193	0xbe563189	-0.20917334
194	0xbd2995c5	-0.041402597
195	0xbd5fde9b	-0.054655652
196	0x3e08dfd1	0.13366629
197	0x3de3e07a	0.111268
198	0x3d0f0c92	0.034924097
199	0xbe21d75d	-0.15804811
200	0x3cc01e86	0.023452055
201	0x3e02c913	0.12772016
202	0xbdd3724a	-0.10324533
203	0x3e416399	0.1888565
204	0xbd915b0b	-0.07097443
205	0x3dc9dd88	0.09856707
206	0x3cb705e3	0.022341674
207	0xbe71f7c7	-0.23629676
208	0x3e014863	0.1262527
209	0x3bdf9fb2	0.006824457
210	0x3e06bae1	0.13157226
211	0x3d380a6e	0.04493182
212	0x3da4395c	0.08018753
213	0x3b99c520	0.0046926886
214	0xbce5061c	-0.027957015
215	0x3e5e39ac	0.21701688
216	0xbe03b5fd	-0.12862392
217	0xbe2ec4e2	-0.17067292
218	0x3c2658cd	0.010153008
219	0x3d6c48e4	0.0576867
220	0xbd7780fc	-0.060425743
221	0xbdcfe5de	-0.101512656
222	0xbe1e5f46	-0.15466031
223	0xbd8a2cfd	-0.06746862
224	0xbbf8df95	-0.0075950124
225	0x3caae2c3	0.020860082
226	0x3d481b10	0.048853934
227	0xbdf169bd	-0.11787746
228	0xbd874a71	-0.066059954
229	0xbceaa34f	-0.028642325
230	0xbe43b7ab	-0.19113033
231	0x3c0b9869	0.008520224
232	0x3e106f0f	0.14104865
233	0xbd99ff93	-0.0751945
234	0x3e74a8d8	0.23892534
235	0xbc060aef	-0.008181318
236	0x3c4a90d6	0.012363633
237	0x3e032608	0.12807477
238	0x3debf8b9	0.115220495
239	0xbd8c1681	-0.0684023
240	0x3e9c1c30	0.30490255
241	0x3dadc0f9	0.08484072
242	0x3d9f1c2b	0.077690445
243	0x3e9d6f08	0.30748773
244	0xbca53b32	-0.020169828
245	0x3defd6da	0.117109016
246	0xbdf30de5	-0.118678845
247	0xbe123045	-0.14276226
248	0xbd802f9c	-0.06259081
249	0x3e1ea2b7	0.15491758
250	0xbcd99b01	-0.02656317
251	0xbdd59c0c	-0.10430154
252	0x3e0ff597	0.14058529
253	0x3c7b8392	0.015351193
254	0xbd6ac007	-0.057312038
255	0x3e524f34	0.20538026

fc3.bias f4 [10]
0	0xbe19d922	-0.15024236
1	0xbed2d97a	-0.41181546
2	0x3e3f948b	0.18709008
3	0x3ec80b92	0.39071327
4	0x3f01cde6	0.507048
5	0xbe399ee0	-0.18127012
6	0xbd213fbb	-0.03936742
7	0xbeb95dc2	-0.36204344
8	0x3e99e458	0.30057025
9	0xbea68307	-0.3252184
